model/model.pth (torch, 17216 bytes, 4 tensors)

linear1.weight f4 [256, 11]
-0.12445329 0.022206908 0.26734304 0.15506655 -0.040011242 0.28047994 -0.28796822 -0.25348303
0.40201053 -0.20349088 0.27216324 0.15216637 -0.013554613 0.27971512 0.1948967 -0.027001973
0.044056725 0.11745977 -0.25868484 -0.4649122 0.02623266 0.11326202 0.31028613 0.3528526
-0.003620268 -0.12170756 -0.0013229364 -0.027669288 0.1773163 0.46484375 0.2797059 0.3945525
0.26329923 0.09422305 -0.15866974 -0.004707974 0.08608661 -0.3343819 0.34740463 0.09295764
-0.059873015 0.30488524 -0.359207 -0.1398417 0.40451685 0.31279978 -0.02101845 -0.20245087
0.0093565015 -0.21281858 0.05495739 0.19421276 0.29200622 0.18855844 -0.064810224 -0.05299753
-0.2868056 0.14324695 0.017951228 0.09892544 -0.28510332 -0.07834755 -0.0124374945 -0.06520938
-0.17071235 -0.14389402 0.15955383 0.060976595 0.020743549 -0.059313998 0.0053886306 -0.015240699
-0.13168178 -0.15355217 -0.17624983 -0.17845435 0.074033864 0.1196909 0.15046744 -0.12283612
-0.036491297 -0.093790956 -0.008666012 0.30629265 -0.27181175 0.10266604 -0.0033389947 -0.36205024
0.43175036 0.06629995 0.13225748 0.053190857 -0.25947788 -0.07158942 0.03900991 0.26469755
0.40375525 0.37550622 0.18848707 0.26749593 -0.51570064 0.44109225 -0.29076785 -0.4201709
-0.025300529 -0.27965245 0.0009904612 0.22671792 -0.38151643 0.12611412 0.08902427 -0.3252533
0.5084306 -0.1002533 -0.18271002 -0.16625045 -0.23557685 0.30409765 0.31246215 0.3321426
0.16435939 -0.4754034 0.03876555 -0.5136361 0.210878 0.07348684 0.22704329 0.365327
-0.014206445 -0.1287612 -0.24493244 -0.14915593 -0.44992226 -0.007418523 -0.24260022 0.12323503
-0.32449126 0.52602166 -0.26984692 0.25395033 -0.5691681 0.0830889 -0.26439765 0.14382596
0.35213834 -0.049318384 0.053780183 -0.2735335 -0.04091632 0.26012665 0.32275283 0.54473096
0.33825052 0.002996321 0.3573859 0.16255987 0.17054108 0.03882631 -0.106575094 0.13952771
-0.13926074 0.36921835 0.5112369 0.067621 0.042643934 0.59306043 0.000938772 -0.2979826
0.50600153 0.012096072 0.1719839 -0.24251488 -0.38582465 0.12362505 -0.012645026 0.36997247
-0.35345843 -0.13161783 0.40675375 0.11371486 -0.03593292 0.06383078 -0.36262062 -0.060009785
0.2819299 0.15732397 -0.20351455 -0.2930468 0.3005969 0.04202622 -0.082674235 -0.07606883
0.06373179 -0.13875239 0.47504365 0.26544282 0.20828862 0.23853727 -0.19055218 -0.3237499
0.009308116 -0.26712728 0.34516644 -0.25371933 0.24149284 -0.50391114 0.1635464 -0.37571564
0.19458893 0.27037144 0.3503833 -0.5575008 -0.11640761 -0.09726299 0.29028848 -0.18864037
0.12163263 -0.18827045 -0.42029274 0.20497942 -0.2266565 0.55362225 -0.15885149 0.11932746
-0.34115708 -0.23110051 0.23868792 -0.3549069 0.104000375 -0.2080638 0.25119194 0.31756088
-0.6351275 0.5883877 0.30741543 -0.12519048 0.25232092 0.085933946 -0.09465818 -0.09368762
0.093102634 -0.15298222 0.2814476 0.2053049 -0.24096952 0.114637606 -0.26029488 -0.30626982
-0.11465729 -0.07741822 0.43341604 0.43411556 0.22963282 0.28401998 0.5378475 -0.7349355
00000000: 5ee1 febd 43eb b53c 30e1 883e c4c9 1e3e
00000010: d4e2 23bd 119b 8f3e 9270 93be 87c8 81be
00000020: 53d4 cd3e ea5f 50be fb58 8b3e 80d1 1b3e
00000030: 2b14 5ebc d236 8f3e 0093 473e 3e33 ddbc
00000040: d374 343d bf8e f03d 5772 84be f908 eebe
00000050: e0e5 d63c ebf5 e73d d3dd 9e3e 19a9 b43e
00000060: 0542 6dbb d041 f9bd 6166 adba b4aa e2bc
00000070: 6792 353e 0000 ee3e 9d35 8f3e c902 ca3e
00000080: 28cf 863e 04f8 c03d 527a 22be 5945 9abb
00000090: 2d4e b03d 1b34 abbe 05df b13e 9360 be3d
000000a0: 683d 75bd eb19 9c3e fbe9 b7be aa32 0fbe
000000b0: d51c cf3e 4b27 a03e e22e acbc 484f 4fbe
000000c0: 034c 193c 1ded 59be 001b 613d b6df 463e
000000d0: d781 953e 7715 413e 39bb 84bd f013 59bd
000000e0: 2fd8 92be 54af 123e 740e 933c 6c99 ca3d
000000f0: 10f9 91be ae74 a0bd a2c6 4bbc 7f8c 85bd
00000100: 38cf 2ebe f458 13be 1462 233e 98c2 793d
00000110: 60ee a93c 3cf3 72bd 1c93 b03b 20b4 79bc
00000120: 97d7 06be c83c 1dbe d67a 34be bdbc 36be
00000130: 119f 973d 8120 f53d 2314 1a3e 8191 fbbd
00000140: e677 15bd 7915 c0bd e4fb 0dbc 64d2 9c3e
00000150: e92a 8bbe 9342 d23d 09d3 5abb a65e b9be
00000160: 620e dd3e 45c8 873d 816e 073e a8de 593d
00000170: 49da 84be 799d 92bd dbc8 1f3d 7086 873e
00000180: 02b9 ce3e 5a42 c03e c102 413e 3af5 883e
00000190: f504 04bf d8d6 e13e 86df 94be a420 d7be
000001a0: 0e43 cfbc 9b2e 8fbe 5dd2 813a be28 683e
000001b0: 1f56 c3be 0f24 013e 5b52 b63d 9a87 a6be
000001c0: 8228 023f 9a51 cdbd 5618 3bbe 8f3d 2abe
000001d0: 0f3b 71be b0b2 9b3e 0afb 9f3e 980e aa3e
000001e0: d44d 283e 1368 f3be a0c8 1e3d a87d 03bf
000001f0: 67f0 573e 4580 963d 097e 683e 240c bb3e
00000200: 26c2 68bc fad9 03be 92cf 7abe 55bc 18be
00000210: 365c e6be 1517 f3bb 316c 78be a662 fc3d
00000220: b823 a6be 5ba9 063f 6029 8abe c705 823e
00000230: 00b5 11bf 832a aa3d 215f 87be 1d47 133e
00000240: 7a4b b43e 1302 4abd 9c48 5c3d 950c 8cbe
00000250: df97 27bd 522f 853e dc3f a53e 7d73 0b3f
00000260: 2c2f ad3e ed5d 443b 49fb b63e 1876 263e
00000270: 52a2 2e3e 5608 1f3d 0b44 dabd 5ae0 0e3e
00000280: 5e9a 0ebe 300a bd3e 6ce0 023f e17c 8a3d
00000290: 68ab 2e3d cfd2 173f ec17 763a 2d91 98be
000002a0: 5189 013f 9a2e 463c 8c1c 303e d255 78be
000002b0: cf8a c5be 212f fd3d 152d 4fbc 086d bd3e
000002c0: 81f8 b4be d3c6 06be 0742 d03e 56e3 e83d
000002d0: 662e 13bd b6b9 823d 69a9 b9be d2cc 75bd
000002e0: 1e59 903e 8919 213e 1e66 50be 3b0a 96be
000002f0: d6e7 993e b023 2c3d 1c51 a9bd fac9 9bbd
00000300: d085 823d 1b15 0ebe ec38 f33e 1fe8 873e
00000310: 9d49 553e 1d43 743e 1c20 43be 8cc2 a5be
00000320: 1181 183c e8c4 88be a8b9 b03e 80e7 81be
00000330: e649 773e 5200 01bf b578 273e cd5d c0be
00000340: 5242 473e 206e 8a3e 7165 b33e 5fb8 0ebf
00000350: 1d67 eebd d231 c7bd b1a0 943e f12a 41be
00000360: 871a f93d f8c9 40be 9c30 d7be 20e6 513e
00000370: a418 68be 30ba 0d3f f7a9 22be f561 f43d
00000380: 24ac aebe 9da5 6cbe 9b6a 743e 5bb6 b5be
00000390: 26fe d43d ad0e 55be 3b9c 803e 5797 a23e
000003a0: b797 22bf 94a0 163f 8e65 9d3e ef31 00be
000003b0: 3530 813e 23fe af3d 26dc c1bd 4bdf bfbd
000003c0: 98ac be3d 5fa7 1cbe e619 903e 733b 523e
000003d0: b7c0 76be 1fc7 ea3d 5f45 85be 66cf 9cbe
000003e0: 71d1 eabd 728d 9ebd b5e8 dd3e 6544 de3e
000003f0: de24 6b3e 116b 913e 60b0 093f bc24 3cbf

linear1.bias f4 [256]
-0.098410554 0.35793918 -0.3544604 0.015658088 0.01670733 -0.30971327 -0.27414936 -0.13285658
-0.25983182 0.0058967797 -0.16254252 0.28917623 0.040511508 -0.28231183 -0.08661952 -0.14755946
0.08206317 -0.19025499 0.16784023 -0.08689889 0.11182207 0.035550293 -0.16724056 -0.109424114
-0.10670469 0.010282471 -0.14161544 -0.13304332 -0.12678815 -0.21740676 -0.19092034 0.3387288
-0.021192707 -0.18787469 0.082232356 -0.09169843 0.059672188 -0.16062517 0.3752979 0.22425978
-0.28702158 0.15431422 -0.08810582 -0.029065615 -0.11398791 0.01205496 0.02122242 -0.17041464
0.09812673 -0.17308716 -0.06128788 -0.13753739 -0.058070686 0.14562117 0.021685366 -0.16207828
0.42629525 -0.13032222 0.3889156 0.3765558 0.008590307 0.18767104 0.38059184 -0.15475285
-0.15981592 0.13163234 -0.19478077 0.3152989 -0.053031035 -0.22356051 0.60100144 -0.08853239
0.06809768 -0.19216406 0.3258749 0.19469321 0.23349729 0.042114496 -0.12906012 0.11237472
0.016373837 0.2091052 -0.23286451 0.32951853 0.02450453 -0.20985469 -0.046789683 0.037561484
-0.20086342 -0.08904277 -0.1502399 0.0021036612 0.11226954 -0.12591694 0.36304063 0.21076581
0.1697167 -0.3011289 -0.32040548 -0.05906259 0.10414278 -0.13541447 0.05180249 0.030692486
-0.2433982 -0.2647616 -0.22197257 -0.007103189 -0.014714202 -0.15201166 -0.31802112 0.027227152
-0.2580357 0.18024749 -0.09164363 -0.14774841 -0.07799432 -0.1779153 -0.15333967 0.44476125
0.18275747 -0.00064920494 -0.05144656 -0.22688705 -0.3090788 -0.18095392 -0.04370257 -0.16085744
0.02531231 -0.13156956 -0.1581245 -0.130069 -0.2782008 -0.2755651 -0.26185074 0.10388491
-0.038759343 -0.30987272 0.09765208 0.040092677 -0.002514279 -0.07659611 0.14680193 0.025213674
-0.08979105 -0.36608437 -0.24664597 0.038754754 -0.23958525 0.017085347 -0.08061244 -0.16989994
0.14126116 -0.24041648 0.12764081 0.15886502 0.0766039 0.22069323 0.35844868 -0.1739802
-0.20761403 -0.098446764 0.26409268 -0.10096713 0.11436866 -0.08223773 -0.21044591 0.32318822
-0.0768952 -0.15445916 -0.020694694 0.21746533 -0.110469736 -0.27042747 -0.10499377 -0.22550526
-0.13875584 -0.2066376 -0.014676906 -0.22052588 0.039858624 0.0028221507 0.045047697 -0.26008105
-0.0039447024 0.45697874 -0.30230284 0.1627886 0.24998681 0.42235842 -0.34972525 0.0456469
-0.026191154 0.09680121 -0.09125815 -0.05252981 -0.2825451 -0.08094501 -0.20598726 -0.31321314
0.18036506 -0.0754967 0.26380807 -0.17674029 -0.10117735 -0.27053797 -0.0061533335 0.4730118
0.22447585 0.029797046 -0.026950922 -0.067479335 0.16175643 -0.2398714 -0.1745791 -0.15069422
0.34325856 -0.058959246 0.41036463 -0.10728256 -0.29217973 0.0059024016 -0.19738238 0.012231509
0.3024392 -0.15988412 0.36766452 -0.21732396 -0.020869283 -0.0015932566 0.06164123 -0.022670217
-0.12649633 0.21416926 0.041931424 -0.13864617 0.15094751 -0.06286995 -0.13424374 -0.23211168
-0.07312014 -0.09640098 0.2763742 -0.18890081 0.03789867 0.10798849 -0.09821027 0.22983928
0.099035 0.021287601 0.15914583 0.2794139 -0.047134172 0.36064965 0.28367302 -0.33149505
00000000: 798b c9bd ce43 b73e d57b b5be 6445 803c
00000010: cfdd 883c bd92 9ebe 4e5d 8cbe 8e0b 08be
00000020: ad08 85be c639 c13b 8c71 26be e80e 943e
00000030: 65ef 253d 2d8b 90be 9365 b1bd d419 17be
00000040: bc10 a83d 34d2 42be 4fde 2b3e 0cf8 b1bd
00000050: f802 e53d 2f9d 113d 1c41 2bbe c019 e0bd
00000060: fd87 dabd cf77 283c a303 11be 823c 08be
00000070: c1d4 01be e19f 5ebe 9f80 43be dc6d ad3e
00000080: 549c adbc 3962 40be 7069 a83d 63cc bbbd
00000090: d36a 743d ed7a 24be 0c27 c03e 5ba4 653e
000000a0: 7ef4 92be 8c04 1e3e d370 b4bd 031b eebc
000000b0: 7e72 e9bd 2b82 453c a4da ad3c 2d81 2ebe
000000c0: abf6 c83d c33d 31be 0009 7bbd 9ad6 0cbe
000000d0: 87db 6dbd b71d 153e 82a5 b13c d9f7 25be
000000e0: 5f43 da3e 3073 05be f21f c73e eccb c03e
000000f0: 5cbe 0c3c d62c 403e efdc c23e 8877 1ebe
00000100: c9a6 23be a1ca 063e 9c74 47be db6e a13e
00000110: 1237 59bd 0ced 64be 3bdb 193f 7850 b5bd
00000120: cc76 8b3d a8c6 44be 13d9 a63e a85d 473e
00000130: ea19 6f3e 4080 2c3d 5628 04be b824 e63d
00000140: 6d22 863c ac1f 563e 0974 6ebe a7b6 a83e
00000150: b9bd c83c 26e4 56be 8aa6 3fbd 12da 193d
00000160: 24af 4dbe 0e5c b6bd 7dd8 19be 94dd 093b
00000170: 93ed e53d 5ff0 00be 76e0 b93e fed2 573e
00000180: 37ca 2d3e 912d 9abe 300c a4be 9deb 71bd
00000190: cf48 d53d 17aa 0abe d92e 543d cf6e fb3c
000001a0: 613d 79be d58e 87be c74c 63be dec1 e8bb
000001b0: d613 71bc f2a8 1bbe aad3 a2be 7a0b df3c
000001c0: 411d 84be cc92 383e a8af bbbd 5c4b 17be
000001d0: 7cbb 9fbd 6e2f 36be 1305 1dbe bfb7 e33e
000001e0: c624 3b3e 682f 2aba a1b9 52bd 1455 68be
000001f0: 943f 9ebe fc4b 39be 7701 33bd d0b7 24be
00000200: c35b cf3c 2cba 06be 64eb 21be cf30 05be
00000210: 5670 8ebe de16 8dbe 4d11 86be 9dc1 d43d
00000220: 1ec2 1ebd a3a7 9ebe d0fd c73d 3838 243d
00000230: 9ac6 24bb 6cde 9cbd 3f53 163e e88c ce3c
00000240: 5fe4 b7bd 696f bbbe c390 7cbe 4ebd 1e3d
00000250: d655 75be 92f6 8b3c 2318 a5bd 40fa 2dbe
00000260: c4a6 103e bd2f 76be 46b4 023e 83ad 223e
00000270: 81e2 9c3d 68fd 613e 9686 b73e de27 32be
00000280: c698 54be 759e c9bd 2837 873e dbc7 cebd
00000290: 1e3a ea3d 416c a8bd 227f 57be ed78 a53e
000002a0: 3b7b 9dbd 8b2a 1ebe eb87 a9bc 3baf 5e3e
000002b0: f53d e2bd 7875 8abe f906 d7bd daea 66be
000002c0: 0316 0ebe cf98 53be 6877 70bc 89d1 61be
000002d0: cc42 233d d5f3 383b ef83 383d 5829 85be
000002e0: 9042 81bb 1ef9 e93e 70c7 9abe 0eb2 263e
000002f0: 8bfc 7f3e 5d3f d83e 300f b3be 3ef8 3a3d
00000300: d58e d6bc b63f c63d 8ee5 babd 8029 57bd
00000310: c0a9 90be 7fc6 a5bd 53ee 52be 795d a0be
00000320: 9eb1 383e 049e 9abd da11 873e 68fb 34be
00000330: 1236 cfbd f483 8abe e7a1 c9bb 9a2e f23e
00000340: ffdc 653e ef18 f43c 2ec8 dcbc 9b32 8abd
00000350: 7aa3 253e d9a0 75be ddc4 32be 964f 1abe
00000360: 96bf af3e 407f 71bd 501b d23e f5b6 dbbd
00000370: 9598 95be ef68 c13b 9b1e 4abe ab66 483c
00000380: 50d9 9a3e aab8 23be 863e bc3e 2c8a 5ebe
00000390: 0ff6 aabc d2d4 d0ba 847b 7c3d e4b6 b9bc
000003a0: 4188 01be 304f 5b3e 49c0 2b3d 43f9 0dbe
000003b0: fc91 1a3e f6c1 80bd 3177 09be afae 6dbe
000003c0: 03c0 95bd e16d c5bd eb80 8d3e 376f 41be
000003d0: a33b 1b3d 1229 dd3d 7722 c9bd fd5a 6b3e
000003e0: ddd2 ca3d 5663 ae3c 20f7 223e 570f 8f3e
000003f0: c30f 41bd 12a7 b83e 973d 913e b8b9 a9be

linear2.weight f4 [3, 256]
-0.11857476 0.13211091 -0.18396991 -0.44277555 -0.07648458 -0.018883402 0.031115107 -0.06042303
-0.13006483 -0.044966735 -0.1945138 0.22900721 0.44417793 -0.25024885 -0.07109504 -0.47291344
0.158373 -0.09248584 0.3292755 -0.19297957 0.09995924 0.06967388 -0.39937168 -0.019639142
-0.4677712 -0.18992122 -0.28931606 0.005039405 -0.3003627 -0.12925214 -0.14743128 0.18577267
-0.43072772 -0.14288262 0.22716369 -0.3085152 -0.27351794 -0.2695852 0.24819742 0.16113994
-0.13446812 0.32499692 -0.24103393 -0.13222568 -0.5356367 0.4571284 0.3361411 -0.15047564
0.033124704 -0.2535692 0.16176438 -0.29319984 -0.03469317 0.18933512 -0.029040903 -0.5787731
0.2768794 0.017254567 0.1606106 0.283633 -0.26651052 0.49828988 0.31192386 -0.085157804
-0.56127924 -0.09718583 -0.04575579 0.3268708 -0.054105103 -0.1228349 0.4172133 0.2975629
0.2783323 -0.10612116 0.3731688 0.10708893 0.042389598 0.13666037 0.033387773 0.2430255
-0.049206935 -0.18308848 -0.4003706 0.2618601 -0.2809167 -0.094107874 0.31902227 -0.43532392
-0.25030276 -0.015410805 -0.15565969 -0.050709903 0.31599715 -0.50330377 0.06379189 0.2752561
0.17201053 0.016639166 -0.6092313 -0.016127422 0.048362195 0.11870552 0.20182432 -0.45487112
-0.14923403 -0.5535129 -0.16540574 0.41442364 -0.12878591 -0.044777595 -0.3997278 -0.40946335
-0.4195793 -0.027598122 -0.1404777 0.35907978 -0.08893921 -0.15481982 0.20233706 0.5180543
0.30355048 -0.039416485 -0.14088097 -0.122206524 -0.18648118 0.11339704 -0.3277974 -0.0025005178
-0.24781463 -0.22307344 -0.62313646 0.08755767 -0.023077697 -0.04265607 -0.11528238 -0.39817265
-0.37909588 -0.12808207 0.23600022 0.08590956 0.32345295 -0.40267664 0.20375586 0.07739243
0.2170975 -0.30143633 -0.0014703452 0.094955765 -0.28518906 0.19840097 0.17792585 0.17469214
0.06870218 -0.25400403 0.3323335 0.17323533 0.3678177 0.28334898 0.22007975 -0.036470704
-0.01311765 -0.38108113 0.31346014 -0.27230957 -0.28147176 -0.14148188 -0.057812236 0.15658152
0.11360882 0.11856271 0.24742194 0.18119411 -0.35020345 -0.429579 -0.09390481 -0.14447768
0.04303618 -0.39307833 -0.32077795 -0.11727112 -0.4379438 -0.0075613544 -0.09593126 -0.13045043
0.038691204 0.2630456 -0.22525504 0.5284027 0.43595076 0.20301262 -0.20339817 0.39516842
-0.03685962 0.45049506 -0.15504819 -0.16198795 -0.10757037 -0.2451586 -0.1607287 0.036895495
0.30197728 0.34524253 0.15772822 -0.058412362 0.008485853 -0.21748503 -0.1754645 0.31304443
0.22289601 -0.66489345 -0.09035378 -0.1328696 0.3286501 -0.4648532 -0.093599856 -0.04565663
0.37960857 -0.5716361 0.34928426 0.049070645 -0.10285523 0.11540728 -0.60463214 -0.09764346
0.16131523 -0.06473525 0.18349393 -0.15143774 0.08688269 0.15594314 0.004734485 0.016141701
0.24441205 0.3501083 0.07053611 -0.082434356 0.44004348 -0.03679661 -0.27423906 -0.104719274
-0.14443396 -0.5283217 0.2293822 -0.4614312 -0.16751154 -0.45379925 -0.18384989 0.24831766
0.20501418 -0.26803318 0.070699774 0.10672967 0.24607524 0.20220616 0.15951292 0.01961959
00000000: 53d7 f2bd 1548 073e 9c62 3cbe 7ab3 e2be
00000010: f3a3 9cbd 5db1 9abc 1ce5 fe3c 247e 77bd
00000020: b72f 05be 0a2f 38bd a02e 47be de80 6a3e
00000030: 4a6b e33e 9e20 80be 479a 91bd b621 f2be
00000040: 882c 223e 3769 bdbd cc96 a83e 709c 45be
00000050: 6eb7 cc3d 2eb1 8e3d 727a ccbe 44e2 a0bc
00000060: b57f efbe b57a 42be 3c21 94be 9821 a53b
00000070: 24c9 99be ac5a 04be 3af8 16be 313b 3e3e
00000080: 5888 dcbe d24f 12be 999d 683e b4f5 9dbe
00000090: 8b0a 8cbe 1207 8abe 7727 7e3e de01 253e
000000a0: 03b2 09be ff65 a63e 99d1 76be 2b66 07be
000000b0: 7d1f 09bf bc0c ea3e b01a ac3e 4916 1abe
000000c0: c5ad 073d d2d3 81be 90a5 253e 4a1e 96be
000000d0: 6d1a 0ebd 11e1 413e 30e7 edbc 792a 14bf
000000e0: 23c3 8d3e 7359 8d3c 1b77 243e 5838 913e
000000f0: 1174 88be da1f ff3e 7cb4 9f3e 3767 aebd
00000100: ffaf 0fbf 5d09 c7bd 6c6a 3bbd 9c5b a73e
00000110: 509d 5dbd dd90 fbbd fb9c d53e 2a5a 983e
00000120: 9281 8e3e 0d56 d9bd fb0f bf3e 7151 db3d
00000130: b7a0 2d3d b2f0 0b3e 9ec1 083d addb 783e
00000140: 368d 49bd 8c7b 3bbe 60fd ccbe 8712 863e
00000150: 50d4 8fbe a1bb c0bd e356 a33e c7e2 debe
00000160: af27 80be 9a7d 7cbc 4165 1fbe 30b5 4fbd
00000170: 61ca a13e 84d8 00bf 53a5 823d 5eee 8c3e
00000180: 8723 303e dc4e 883c 95f6 1bbf a81d 84bc
00000190: 7017 463d e11b f33d 09ab 4e3e dee4 e8be
000001a0: ced0 18be 05b3 0dbf 1f60 29be 562f d43e
000001b0: 74e0 03be b668 37bd 1fa9 ccbe 2ea5 d1be
000001c0: 19d3 d6be 7515 e2bc 63d9 0fbe 4ed9 b73e
000001d0: c325 b6bd 1689 1ebe 7231 4f3e 359f 043f
000001e0: f86a 9b3e 2e73 21bd 1a43 10be 6a47 fabd
000001f0: ecf4 3ebe b53c e83d 10d5 a7be badf 23bb
00000200: 1ec3 7dbe 5d6d 64be df85 1fbf 7051 b33d
00000210: 700d bdbc 22b8 2ebd 2b19 ecbd 49dd cbbe
00000220: db18 c2be f227 03be 0baa 713e 5af1 af3d
00000230: a09b a53e a22b cebe 60a5 503e ec7f 9e3d
00000240: cf4e 5e3e dd55 9abe 99b8 c0ba 2b78 c23d
00000250: 4d04 92be a029 4b3e 3232 363e 7fe2 323e
00000260: bbb3 8c3d d10c 82be 9e27 aa3e 9a64 313e
00000270: 9a52 bc3e 1e13 913e 965c 613e 4e62 15bd
00000280: 69eb 56bc 111d c3be d97d a03e 296c 8bbe
00000290: 111d 90be a0e0 10be 86cc 6cbd e856 203e
000002a0: beab e83d 02d1 f23d 2d5c 7d3e f38a 393e
000002b0: de4d b3be c7f1 dbbe 2a51 c0bd f5f1 13be
000002c0: b546 303d 9041 c9be 023d a4be d72b f0bd
000002d0: 2b3a e0be 3dc5 f7bb 9c77 c4bd cc94 05be
000002e0: ab7a 1e3d eaad 863e 42a9 66be 6645 073f
000002f0: f034 df3e 8ae2 4f3e 9c47 50be 8453 ca3e
00000300: 1dfa 16bd 4aa7 e63e f4c4 1ebe 2be0 25be
00000310: db4d dcbd db0a 7bbe 1096 24be bb1f 173d
00000320: c49c 9a3e a1c3 b03e 8283 213e cd41 6fbd
00000330: 3f08 0b3c 65b4 5ebe f7ac 33be 5c47 a03e
00000340: da3e 643e 7536 2abf 670b b9bd f80e 08be
00000350: d344 a83e 3d01 eebe 48b1 bfbd 7202 3bbd
00000360: 0e5c c23e be56 12bf 63d5 b23e 4dfe 483d
00000370: c3a5 d2bd a75a ec3d 2cc9 1abf 4bf9 c7bd
00000380: d22f 253e ea93 84bd d5e5 3b3e 7f12 1bbe
00000390: 8def b13d 8faf 1f3e bd23 9b3b 9a3b 843c
000003a0: 2747 7a3e 6541 b33e 3c75 903d 58d3 a8bd
000003b0: 614d e13e 0bb8 16bd 1069 8cbe 0f77 d6bd
000003c0: 7fe6 13be 1740 07bf 2be3 6a3e b640 ecbe
000003d0: 2588 2bbe 6058 e8be 2543 3cbe fc46 7e3e
000003e0: 3def 513e a53b 89be 0bcb 903d 1695 da3d
000003f0: 26fb 7b3e 220f 4f3e 5b57 233e 43b9 a03c

linear2.bias f4 [3]
0.23221123 0.023396185 0.017817037
00000000: c8c8 6d3e 5ba9 bf3c 09f5 913c
